checkpoints/PiLLE.pth (torch, 322591 bytes, 14 tensors)

e_conv1.weight f4 [32, 3, 3, 3]
0	0xbb8b9e79	-0.004260835
1	0x3dd1c319	0.1024229
2	0x3cd85ce8	0.026411489
3	0xbc6299dc	-0.013830628
4	0x3d6e0625	0.05811133
5	0x3cc5089e	0.02405196
6	0xbc9ac735	-0.018893817
7	0x3dc6a119	0.09698696
8	0x3d2a6e2c	0.041608974
9	0xbd700b4e	-0.05860453
10	0x3cf03651	0.029322775
11	0x3d0248ac	0.031807587
12	0xbd1b0a66	-0.037851714
13	0x3d0a1fa0	0.033721566
14	0xba97a939	-0.0011570818
15	0xbcfcb85e	-0.030849632
16	0x3d074565	0.033025164
17	0x3d06e7ad	0.032935787
18	0xbd56148a	-0.05226568
19	0x3a9592fc	0.0011411603
20	0xbc8415e6	-0.016123723
21	0xbd1cf471	-0.038319055
22	0xbbc68d1e	-0.006059303
23	0xbc420bce	-0.011843635
24	0xbc508de3	-0.012729141
25	0x3d6ac82b	0.0573198
26	0x3d8eb5d6	0.06968276
27	0x3caab6c9	0.020839112
28	0xbb25cd14	-0.0025299238
29	0x3c1923aa	0.009346882
30	0xbd1b46eb	-0.03790943
31	0x3c1134fd	0.008862731
32	0x3b24f6d5	0.0025171537
33	0xbc8b6a3f	-0.017018436
34	0xbd06213c	-0.03274654
35	0xbd9ff568	-0.078104794
36	0x3b50eeaf	0.0031880548
37	0xbc4514de	-0.012028901
38	0x3c80040f	0.015626935
39	0x3d06bd18	0.032895178
40	0xbc16970a	-0.009191284
41	0x3c18f5ea	0.009335974
42	0xbbebf569	-0.007200886
43	0xbccd24fa	-0.025042046
44	0x3cbb82b3	0.02288947
45	0xbad53c74	-0.0016268627
46	0x3c2ab8f2	0.010420071
47	0x3cbadc75	0.0228102
48	0xbc0c2b4d	-0.008555246
49	0xbae674fb	-0.001758247
50	0x3b551339	0.0032512678
51	0x3ccfeaad	0.025380457
52	0xbce717ef	-0.028209655
53	0xbc98376d	-0.018581117
54	0xba983d00	-0.0011614859
55	0xba8ec26b	-0.0010891681
56	0xba84c58d	-0.0010129676
57	0xba9b8ba5	-0.0011867179
58	0xbaa0b4ed	-0.0012260951
59	0xba8fc4c0	-0.001096867
60	0xba997a6d	-0.0011709459
61	0xbaa2b2ef	-0.0012412946
62	0xba98ac22	-0.0011647979
63	0xba9855cd	-0.001162225
64	0xba98a3af	-0.0011645461
65	0xba940e53	-0.0011295773
66	0xba8f3ae0	-0.001092758
67	0xba8f2c10	-0.0010923166
68	0xbaa2c76d	-0.0012419053
69	0xbaa2d6c4	-0.0012423624
70	0xba94a247	-0.0011339866
71	0xbaa26d00	-0.0012392104
72	0xbaa27753	-0.001239518
73	0xba9f5f87	-0.0012159207
74	0xba9e06a6	-0.0012056425
75	0xbaa4fcc4	-0.0012587537
76	0xba97ac2e	-0.0011571699
77	0xba96f670	-0.0011517536
78	0xba9cada9	-0.001195361
79	0xbaaf845e	-0.0013390889
80	0xba9ec353	-0.0012112655
81	0x00003f1f	2.2644e-41
82	0x80012c57	-1.07742e-40
83	0x80009c06	-5.597e-41
84	0x80005cdd	-3.3313e-41
85	0x8000935d	-5.2864e-41
86	0x000031d8	1.788e-41
87	0x80004241	-2.3767e-41
88	0x000018b6	8.865e-42
89	0x000007aa	2.75e-42
90	0x000068ca	3.7591e-41
91	0x00006346	3.5613e-41
92	0x8000d32a	-7.5751e-41
93	0x00004cc1	2.7534e-41
94	0x800034ee	-1.8988e-41
95	0x0000c08b	6.9071e-41
96	0x800023a3	-1.2784e-41
97	0x0000e6b3	8.2759e-41
98	0x0000f6da	8.8554e-41
99	0x00008231	4.6704e-41
100	0x0000c1a9	6.9472e-41
101	0x80007c05	-4.449e-41
102	0x0000283c	1.4433e-41
103	0x80009b8e	-5.5803e-41
104	0x80011e08	-1.02609e-40
105	0x00009cfa	5.6313e-41
106	0x800050ec	-2.9029e-41
107	0x80012342	-1.04484e-40
108	0x3d2434a2	0.040089257
109	0x3cfb928c	0.030709527
110	0xbcd9a22f	-0.026566593
111	0x3ccf32a8	0.02529271
112	0x3d13900e	0.036026053
113	0x3d0c4963	0.034249675
114	0x3cc01d7b	0.023451557
115	0xbcc41fc3	-0.023940926
116	0x3b90a21c	0.004413856
117	0x3d5022a4	0.050814286
118	0xbb8b1182	-0.0042440305
119	0xbc39d0ca	-0.011341283
120	0x3d01d0c8	0.03169325
121	0x3ca24ebb	0.019812932
122	0xbc8e64c4	-0.017382033
123	0xbc95b307	-0.018273843
124	0xbbf1be64	-0.0073774327
125	0xbb403103	-0.0029326088
126	0x3cec9717	0.028880639
127	0xbca550b1	-0.020180078
128	0xbd19d814	-0.037559584
129	0x3ca548d2	0.020176325
130	0x3cad6ba8	0.021169499
131	0x3bc0cf72	0.0058841044
132	0x3c797413	0.015225428
133	0x3c0f7934	0.008756924
134	0xbcb7a2e4	-0.02241654
135	0xbc0aa232	-0.008461522
136	0xbd0da505	-0.034581203
137	0xbb899ab3	-0.00419935
138	0x3d32b404	0.043628708
139	0x3bb77c43	0.00559953
140	0xbc97c78a	-0.018527765
141	0x3cbe7a67	0.023251725
142	0x3a894d4e	0.0010475309
143	0xbcfc9137	-0.030830963
144	0xbca7e2ff	-0.020493982
145	0xbd147c5a	-0.036251403
146	0xbce59be9	-0.028028445
147	0x3cf4716e	0.029839244
148	0x3c6ff54c	0.014645886
149	0xbc38231f	-0.011238842
150	0x3af50b66	0.0018695414
151	0xbd4644ec	-0.048405573
152	0xbcdf9d86	-0.027296793
153	0xbd43dc0e	-0.047817282
154	0xbc944eb7	-0.01810394
155	0xbc012bec	-0.007884007
156	0xbc83752b	-0.016047081
157	0x3bc69c52	0.0060611153
158	0x3c9ec0f9	0.019379126
159	0xbd5b5d88	-0.053555995
160	0xbd11bcee	-0.035580568
161	0xbca251db	-0.019814422
162	0x00004ee4	2.83e-41
163	0x0000d7a6	7.736e-41
164	0x00013909	1.12296e-40
165	0x00017fc0	1.37664e-40
166	0x00015e0c	1.25573e-40
167	0x800005f4	-2.136e-42
168	0x8001932a	-1.44628e-40
169	0x800106ca	-9.4271e-41
170	0x8001f79c	-1.80661e-40
171	0x80006d46	-3.92e-41
172	0x000008bb	3.132e-42
173	0x00000e80	5.202e-42
174	0x800111c4	-9.8209e-41
175	0x80012db3	-1.08229e-40
176	0x800073a4	-4.1484e-41
177	0x00001f91	1.1324e-41
178	0x800134ec	-1.1082e-40
179	0x0000f1f2	8.6794e-41
180	0x0000af71	6.2937e-41
181	0x8001eaf1	-1.76117e-40
182	0x80010635	-9.4062e-41
183	0x00001bdf	9.998e-42
184	0x80000268	-8.63e-43
185	0x0000218a	1.2032e-41
186	0x80008c84	-5.0408e-41
187	0x800055bc	-3.0756e-41
188	0x8000436b	-2.4185e-41
189	0xbccdbb22	-0.025113646
190	0xbc80e881	-0.015735867
191	0xbc12b263	-0.0089536635
192	0xbcbd66ca	-0.023120303
193	0xbc613984	-0.013746623
194	0x3b91145a	0.004427475
195	0xbcccea2a	-0.025014002
196	0xbc6a7151	-0.014309243
197	0xbc5ed08d	-0.013599527
198	0xbd097de5	-0.033567328
199	0xbcdc7fbc	-0.026916377
200	0x3c812f2a	0.01576956
201	0xbc51f9af	-0.012815877
202	0xbb2cc16b	-0.0026360403
203	0xbc996370	-0.018724173
204	0xbc7b259b	-0.01532879
205	0xbc5f6528	-0.013634957
206	0x3bf5c545	0.007500323
207	0x3bb9e952	0.005673566
208	0xbc28075b	-0.01025566
209	0xbb0ddc82	-0.0021646325
210	0xbc94db90	-0.018171102
211	0xbb9ed9e7	-0.0048477533
212	0xbcfd3717	-0.030910058
213	0xbcb3ae9d	-0.021933848
214	0x3c1ef71b	0.009702469
215	0x3bf1d0ee	0.0073796427
216	0x3d132b58	0.035930008
217	0x3c2addf1	0.0104288915
218	0xbbcd170a	-0.00625885
219	0xbd1a1ca3	-0.037624966
220	0xbbaa2e58	-0.005193513
221	0xbcf5431a	-0.029939223
222	0x3b620c29	0.0034492111
223	0x3cf9aa22	0.030476633
224	0x3c8faca6	0.01753838
225	0x3bc35a27	0.0059616747
226	0x3cee8e37	0.029120548
227	0x39825ca8	0.00024864567
228	0xbc82ac4f	-0.015951304
229	0xbc9c1126	-0.019051146
230	0xbc1c9f2d	-0.009559435
231	0x3d15fe2f	0.03661936
232	0x3ba5ff93	0.005065867
233	0x3bf45eab	0.0074575744
234	0xbbffc3e6	-0.0078053353
235	0xbca01365	-0.019540498
236	0xbba511cd	-0.0050375224
237	0xbd4b5642	-0.04964281
238	0xbd546dc2	-0.051862486
239	0xbcd3a339	-0.025834667
240	0x3cb22f65	0.021751115
241	0xbc73a960	-0.014871925
242	0x3d389caa	0.04507128
243	0xbd400e1d	-0.04688846
244	0xbc9132ac	-0.017724358
245	0xbb925430	-0.0044656023
246	0xbce90f58	-0.0284497
247	0xbd20532c	-0.03914182
248	0x3c84d807	0.016216291
249	0xbca9e895	-0.020740787
250	0xbce52e84	-0.027976282
251	0xbcb35f72	-0.021896098
252	0xbcbd129c	-0.023080163
253	0x3c20e5b3	0.00982039
254	0x3d661594	0.056172922
255	0x3c198f8c	0.009372603

e_conv1.bias f4 [32]
0	0xbbffd794	-0.0078076813
1	0x3dca2842	0.0987096
2	0x39e39cec	0.0004341373
3	0xb4027101	-1.2148304e-07
4	0x3d13d33f	0.03609013
5	0x3df89efe	0.121397
6	0xb6a449d6	-4.8961765e-06
7	0x3d0d92d1	0.034563843
8	0x3d2fa24b	0.042879384
9	0x3cc9d270	0.024636477
10	0x3cbd9e31	0.02314672
11	0xbd405dc6	-0.04696443
12	0xb2671a06	-1.3451887e-08
13	0x3d2aa70d	0.04166322
14	0xaea56915	-7.5219976e-11
15	0xb3b8392a	-8.578566e-08
16	0xa5559c0e	-1.8527678e-16
17	0xaf316ff0	-1.6137824e-10
18	0x3d81a4f8	0.063302934
19	0x3e10b318	0.14130819
20	0x3e1c7ec5	0.15282734
21	0xbdae5a87	-0.085133605
22	0x3dd5a1c9	0.10431249
23	0x3e0644eb	0.13112228
24	0x3cbe3dcb	0.023222825
25	0x3d8b7d3f	0.06810998
26	0x3ddda99a	0.108233646
27	0x3e0ac795	0.13552697
28	0x3dce429c	0.100712985
29	0x3db48879	0.088150926
30	0x8c53c143	-1.6313006e-31
31	0xab6c02bf	-8.3847854e-13

e_conv2.weight f4 [32, 32, 3, 3]
0	0xbc047787	-0.008085138
1	0xbca02c23	-0.019552296
2	0xbc8d3e21	-0.01724154
3	0xbc832437	-0.01600848
4	0xbc221057	-0.009891591
5	0xbc6bad5f	-0.014384597
6	0xbcad3421	-0.021143021
7	0xbcef28cb	-0.029194256
8	0xbcbe7372	-0.023248408
9	0xbc737339	-0.014859014
10	0x3af6bf94	0.0018825405
11	0x3c85f47f	0.016351936
12	0x3cbdb02c	0.023155294
13	0xbb121672	-0.002229121
14	0xbce7dd35	-0.028303722
15	0x3c9a0c7e	0.018804785
16	0xbc49520f	-0.012287631
17	0x3cede8b8	0.029041633
18	0x3911ed50	0.00013916683
19	0x3915deec	0.00014292792
20	0x3913b406	0.00014086076
21	0x39158dd3	0.00014262581
22	0x39187c38	0.00014542125
23	0x3917df18	0.00014483591
24	0x39131974	0.00014028494
25	0x39153726	0.00014230292
26	0x39140861	0.00014117501
27	0x0000fe3d	9.1204e-41
28	0x8000659d	-3.6452e-41
29	0x00011608	9.9739e-41
30	0x00001283	6.641e-42
31	0x80007ece	-4.5489e-41
32	0x80008d47	-5.0681e-41
33	0x8000bc87	-6.7631e-41
34	0x00000f08	5.392e-42
35	0x8000dca5	-7.9152e-41
36	0xbc731964	-0.014837597
37	0xba9cfabb	-0.0011976579
38	0x3a18b772	0.00058256753
39	0xbd284b78	-0.041087598
40	0x3c73c256	0.014877876
41	0x3d0d0325	0.034426827
42	0xbc58b278	-0.013226144
43	0xbd0a66a0	-0.033789277
44	0x3c74b12d	0.01493482
45	0xb9aaaa3f	-0.0003255177
46	0x3cd87a2f	0.02642545
47	0xbc389c84	-0.011267785
48	0xbc8cf09e	-0.017204579
49	0x3cb7723b	0.022393337
50	0xbccf4556	-0.025301617
51	0x3b9003fb	0.0043950058
52	0x3ce8076b	0.02832385
53	0x3c3ee94d	0.011652303
54	0x80002ab9	-1.5326e-41
55	0x800163e7	-1.27674e-40
56	0x8000b794	-6.5855e-41
57	0x00002b94	1.5633e-41
58	0x8000bde3	-6.8119e-41
59	0x8000c9b5	-7.2359e-41
60	0x0000926d	5.2528e-41
61	0x8000dcd4	-7.9218e-41
62	0x800089e7	-4.947e-41
63	0x3cceb710	0.025233775
64	0x3cca961c	0.02472978
65	0x3cb23fad	0.021758879
66	0x3cbc6da0	0.023001492
67	0x3cc0816b	0.023499211
68	0x3c9be384	0.019029386
69	0x3cc37091	0.023857387
70	0x3cb88068	0.022522166
71	0x3ca071eb	0.01958557
72	0x3cd16523	0.025560921
73	0x3b2280a6	0.0024795919
74	0x3c2f6d0e	0.010707153
75	0x3c4a7947	0.012358016
76	0xbc737702	-0.014859917
77	0x388c1b3f	6.680795e-05
78	0x3ba5173a	0.005038169
79	0x3c418eae	0.011813803
80	0x3cce375e	0.025172886
81	0xbbd364eb	-0.0064512393
82	0xbb91d9d3	-0.0044510155
83	0xbb127153	-0.0022345379
84	0xbb15a0c9	-0.002283143
85	0xbc0fc00a	-0.008773813
86	0xbc81ac91	-0.015829356
87	0xba8adc81	-0.001059428
88	0xbbd8edd3	-0.0066201477
89	0x3b485ba6	0.0030572205
90	0x3c5c473c	0.013444718
91	0xbbfcfa55	-0.0077202716
92	0xbc96db3b	-0.018415084
93	0x3ce2e408	0.027696624
94	0x399ae875	0.00029546363
95	0xbc600b2a	-0.013674537
96	0x3c7ed33c	0.015553292
97	0xbbd50e00	-0.006501913
98	0xbc515ab2	-0.012777971
99	0xbc01f8bf	-0.007932841
100	0x3b9acb07	0.00472391
101	0x3a9cbe82	0.0011958631
102	0xbab33c15	-0.0013674522
103	0x3bf2cb4a	0.007409488
104	0x3c0b7563	0.008511874
105	0xbc8bf019	-0.01708226
106	0xbb97a9c3	-0.0046283915
107	0xbbf9d772	-0.00762456
108	0x0000d5b9	7.6669e-41
109	0x8000d47a	-7.6222e-41
110	0x00006dbf	3.937e-41
111	0x0000a589	5.9383e-41
112	0x00017177	1.32539e-40
113	0x80019605	-1.45652e-40
114	0x00002827	1.4404e-41
115	0x8000b288	-6.4045e-41
116	0x00004a98	2.6759e-41
117	0x3d02a853	0.031898808
118	0x3c708197	0.014679334
119	0xba90c554	-0.0011045136
120	0xbbcdaf6b	-0.006277015
121	0xbc238e25	-0.00998262
122	0xbc22a49d	-0.009926942
123	0xbc7dedbd	-0.015498576
124	0xbc9f5cd4	-0.019453444
125	0x3badf7ad	0.0053090663
126	0x000007a0	2.735e-42
127	0x00008f62	5.1436e-41
128	0x80009b6f	-5.5759e-41
129	0x800032d4	-1.8234e-41
130	0x0000b141	6.3587e-41
131	0x8000cfe5	-7.4579e-41
132	0x8000c105	-6.9242e-41
133	0x800152aa	-1.2149e-40
134	0x800032eb	-1.8266e-41
135	0x8001508b	-1.20729e-40
136	0x80008dba	-5.0842e-41
137	0x00009cd7	5.6264e-41
138	0x0000e9d4	8.3882e-41
139	0x0001380b	1.1194e-40
140	0x800111d2	-9.8228e-41
141	0x0000d77f	7.7305e-41
142	0x8000595b	-3.2055e-41
143	0x80003654	-1.9489e-41
144	0xa02b6cc9	-1.4520257e-19
145	0x1d3db79a	2.5108862e-21
146	0xa0255b93	-1.4006343e-19
147	0x9f0b3eef	-2.9486452e-20
148	0x1d095b16	1.817889e-21
149	0x9dc1b11d	-5.1269805e-21
150	0xa20d4bf2	-1.9149268e-18
151	0xa191560d	-9.84836e-19
152	0x2185a544	9.056176e-19
153	0x80001927	-9.023e-42
154	0x0000edc6	8.5297e-41
155	0x80005ba2	-3.2872e-41
156	0x8000c617	-7.1061e-41
157	0x0000dd40	7.937e-41
158	0x000068d8	3.7611e-41
159	0x0000224a	1.23e-41
160	0x00005f0d	3.4098e-41
161	0x0000e7d2	8.3161e-41
162	0x3c92547c	0.01786255
163	0x3d01e2f5	0.031710584
164	0x3cc05efc	0.023482792
165	0x3cc4eb68	0.024038032
166	0xbb8cf84b	-0.0043020598
167	0x3cf46b88	0.029836431
168	0x3d23a376	0.03995081
169	0x3d1f11dc	0.03883539
170	0x3a48bc0d	0.0007657416
171	0x3bd6a2fa	0.00655019
172	0x3c5d406c	0.013504129
173	0x3b1531e0	0.0022765324
174	0x3cc526a7	0.024066282
175	0xbc6824b0	-0.014168903
176	0x3c98c5d8	0.018649027
177	0x3ca60067	0.020263864
178	0x3b743eb7	0.0037268826
179	0x3cbfe2d6	0.023423593
180	0xbc11dc38	-0.008902602
181	0x3c6b4044	0.014358584
182	0x3c76281a	0.015024209
183	0x3cdc470f	0.026889352
184	0x3d01491c	0.031563863
185	0xbcb1a37e	-0.021684404
186	0x3c6bf43b	0.014401491
187	0x3bc58df9	0.0060288874
188	0x3d166b26	0.03672328
189	0xbd763072	-0.060104795
190	0xbd4e6dcb	-0.050397675
191	0xbca040d6	-0.019562166
192	0xbd040a12	-0.032236166
193	0xbc78479c	-0.015153792
194	0xbc88ec94	-0.016714372
195	0xbd018f88	-0.031631023
196	0xbc8352f4	-0.016030766
197	0xbcc0523b	-0.02347671
198	0x3c5d9850	0.013525084
199	0xbcf6cacf	-0.030126004
200	0xba214993	-0.0006152626
201	0xbc464f28	-0.012103833
202	0x3b89c299	0.004204106
203	0x3d2450cb	0.040116113
204	0xbc72ebab	-0.014826695
205	0x3c0c66f1	0.008569465
206	0x39c2e690	0.00037174346
207	0xbcc7ffe5	-0.024414012
208	0xbc1238fc	-0.008924719
209	0xbb2a6fc1	-0.0026006552
210	0xbca25002	-0.019813541
211	0x3ade39fd	0.0016954538
212	0x3aba111f	0.0014195776
213	0x3da7e1e2	0.081973806
214	0x3cfab6ec	0.030604802
215	0x3c006c19	0.0078382725
216	0xbc3c8805	-0.011507039
217	0x3c11111a	0.008854175
218	0xbceaf9a1	-0.028683485
219	0xbc4dadaf	-0.012553616
220	0x3b91b71f	0.0044468786
221	0x3bd3c51a	0.0064627053
222	0xbcd7a3a9	-0.026323156
223	0xbc9fca1d	-0.019505555
224	0xbd0edde0	-0.034879565
225	0x3a7be1e4	0.00096085505
226	0x3c337297	0.010952613
227	0xbb8d673d	-0.0043152855
228	0xbce36933	-0.027760124
229	0xbcb1286c	-0.02162572
230	0xbca68212	-0.020325694
231	0x3b1235de	0.002230994
232	0xbc7b2a24	-0.015329871
233	0x39aac592	0.00032572128
234	0xbad37b10	-0.0016134698
235	0xbb2951f4	-0.0025836201
236	0x3cc3c70c	0.023898624
237	0xbbe92f4d	-0.0071162344
238	0x39356e5e	0.0001730262
239	0xbc05d3bf	-0.00816816
240	0x3d1d8955	0.03846105
241	0x3c50b633	0.012738752
242	0x3c25535a	0.010090673
243	0xbd0bee95	-0.034163076
244	0xbc0012fa	-0.007817024
245	0x3bbf7ad5	0.0058435
246	0xbc8e87a3	-0.017398661
247	0xbd478ccd	-0.048718262
248	0xbc0eeb94	-0.008723158
249	0x3a53e718	0.0008083447
250	0x3d6d24c0	0.057896376
251	0xbc3988ae	-0.011324091
252	0x3ca31ef6	0.019912224
253	0xbc09232b	-0.008370201
254	0x3d4a90b4	0.049454406
255	0x3c4bc415	0.012436886

e_conv2.bias f4 [32]
0	0xbc55dbeb	-0.013052921
1	0x3cab8709	0.020938413
2	0x3c036cf1	0.008021579
3	0x3d66dc8f	0.056362685
4	0xab02dc0f	-4.649067e-13
5	0xba99cc53	-0.0011733867
6	0x3d3b2bb3	0.04569597
7	0x3d606ef9	0.05479333
8	0xbb942c76	-0.0045219017
9	0x3c3fe31c	0.011711862
10	0x3d719a1c	0.05898486
11	0x38d89d7d	0.00010329017
12	0xbba5c1e3	-0.0050585135
13	0x3d450f7e	0.048110478
14	0x3d5eed30	0.05442542
15	0x3bc70c21	0.006074444
16	0xba2743c1	-0.00063806406
17	0xbc076404	-0.008263592
18	0x8efb03d0	-6.187995e-30
19	0xb5b06165	-1.3141367e-06
20	0xb71c4286	-9.313813e-06
21	0xba793be2	-0.00095075194
22	0x3bbacb34	0.005700493
23	0x3d05aa8f	0.03263336
24	0xbc4ed346	-0.012623614
25	0x3c5875c9	0.013211676
26	0x3d3a7340	0.045520067
27	0x3ca04340	0.019563317
28	0x3c0604e5	0.008179878
29	0x3caf9bf5	0.02143667
30	0x3d5f702e	0.054550342
31	0xbaa7e156	-0.0012808244

e_conv3.weight f4 [32, 32, 3, 3]
0	0x3b5651ef	0.0032702645
1	0xbb960f01	-0.0045794253
2	0x3c07d5be	0.008290706
3	0x3bcd2d9f	0.006261542
4	0x3b21bff0	0.0024681054
5	0x3c01f4a0	0.007931858
6	0x3c2562df	0.0100943735
7	0x3ca6a877	0.020344002
8	0x3c63eded	0.013911706
9	0x3c579068	0.013156988
10	0x3c2fe550	0.010735825
11	0xbaf1b164	-0.0018439707
12	0x3c70f8e3	0.014707777
13	0xbbc17557	-0.0059038806
14	0xbc4b6fe5	-0.012416814
15	0xbc0ce3e5	-0.008599256
16	0x3c52901b	0.01285174
17	0x3bc160ac	0.0059014168
18	0xbbed11b6	-0.0072347773
19	0x3c2c02bc	0.010498699
20	0xbc9e23e3	-0.019304221
21	0x3b52ea1a	0.0032182992
22	0xbc26fba3	-0.010191831
23	0xbc8446f9	-0.016147124
24	0xbc891c44	-0.01673711
25	0xbb1c0a19	-0.002380973
26	0xbc0c8aee	-0.008578045
27	0x3d1504df	0.0363816
28	0x3c3ce1d4	0.011528451
29	0xbc3a9dd6	-0.01139017
30	0x3c40224e	0.011726929
31	0xbb95182b	-0.00455
32	0x3b4bd2a5	0.0031100896
33	0x3c6eb46c	0.014569383
34	0x3c8c99dd	0.017163211
35	0xbc582b93	-0.013193983
36	0x8000c27f	-6.9772e-41
37	0x800092a6	-5.2608e-41
38	0x80002355	-1.2675e-41
39	0x8000a3ca	-5.8756e-41
40	0x80007484	-4.1798e-41
41	0x800087c4	-4.8704e-41
42	0x8000347d	-1.8829e-41
43	0x0000c1a4	6.9465e-41
44	0x00000c80	4.484e-42
45	0x22bc6869	5.106805e-18
46	0xa503a070	-1.1416797e-16
47	0x22ea3ca3	6.349003e-18
48	0xa3d222f4	-2.2783049e-17
49	0x25d4f7bc	3.694401e-16
50	0xa32eebc5	-9.482485e-18
51	0x2303e814	7.150669e-18
52	0xa5726acd	-2.102634e-16
53	0xa4ad2a86	-7.509883e-17
54	0xbb656e40	-0.003500834
55	0xba3fbe11	-0.0007314394
56	0x3c64cc92	0.013964789
57	0xbc14107d	-0.009037134
58	0x3991aa2d	0.00027783346
59	0xbc02b0b0	-0.007976696
60	0x3bc6e67f	0.0060699577
61	0x3cb354cd	0.021891022
62	0x3c4086ab	0.011750857
63	0x3bd6059a	0.0065314295
64	0x3c057914	0.008146543
65	0x3b2fc53f	0.0026820449
66	0x3be594c8	0.0070062615
67	0x3cab9217	0.020943685
68	0x3c97ecf1	0.0185456
69	0xb9ca70c5	-0.00038612462
70	0xbc3cbfcc	-0.011520337
71	0xbb4107c7	-0.0029454099
72	0x3c24e78a	0.010064969
73	0x3bb5eaf5	0.0055516907
74	0x3ccc0334	0.024903871
75	0x3c46bb81	0.012129665
76	0x3bde65c5	0.006787034
77	0x3c53ae14	0.012919921
78	0x3ce85816	0.028362315
79	0x3c6451d8	0.013935529
80	0x3c31809f	0.010833888
81	0xbb100dbe	-0.0021980847
82	0xbc406974	-0.011743892
83	0x3a0162f3	0.0004935704
84	0x3b188227	0.0023270936
85	0x3b7bdb6e	0.003843035
86	0x3bbced78	0.005765613
87	0x3c404429	0.011735001
88	0x3be86160	0.007091686
89	0x3c40312e	0.011730475
90	0x3c8b9cb0	0.017042488
91	0xbc98b73d	-0.018642062
92	0xbc2d23ff	-0.010567664
93	0x3b91678e	0.0044373935
94	0x3c08df9f	0.008354097
95	0xbc6f2be3	-0.014597866
96	0x3c0cee35	0.008601715
97	0xbc85ab3b	-0.016317
98	0xbc7646e3	-0.015031549
99	0x3afcc25a	0.0019283995
100	0x3c00ccfc	0.007861372
101	0x3c3e7e74	0.011626828
102	0x3bf4fa5e	0.007476135
103	0x3c7dccb3	0.015490699
104	0x3c588241	0.013214649
105	0x3bf7a041	0.0075569456
106	0x3aea0937	0.001785553
107	0x3c05b0ff	0.008159875
108	0xbca3c5c2	-0.01999176
109	0xbc3060cb	-0.010765265
110	0xbcae503b	-0.021278491
111	0xbc8efc18	-0.017454192
112	0xbba55cab	-0.0050464473
113	0xbcace8aa	-0.021107037
114	0xbc5d86d5	-0.013520916
115	0xbc0f5293	-0.008747715
116	0xbc7e29bb	-0.015512879
117	0xbc1f2eb9	-0.009715729
118	0x3c0260fe	0.007957695
119	0xba7cf038	-0.00096488325
120	0xbc40f241	-0.011776508
121	0xbb21281c	-0.0024590557
122	0xbbfc7564	-0.0077044237
123	0xbab8483c	-0.0014059613
124	0xbb7a7c43	-0.0038221038
125	0x3ccd684d	0.025074149
126	0x3cb20760	0.021732032
127	0x3ca5928b	0.020211479
128	0x3c652b00	0.013987303
129	0x3d074934	0.033028796
130	0x3c0bc735	0.008531381
131	0x3acf828e	0.0015831755
132	0x3cc826eb	0.02443262
133	0x3c1d976d	0.009618622
134	0x3bb5810f	0.0055390666
135	0xbc913973	-0.01772759
136	0x3bd458f6	0.0064803315
137	0xbbace3c1	-0.005276174
138	0xbc886e0c	-0.016654037
139	0x3be29661	0.006914899
140	0x3aa4504e	0.001253614
141	0xbd07ab36	-0.033122264
142	0xbc42ca6a	-0.01188908
143	0xbc006ed5	-0.007838924
144	0x0d044af6	4.076587e-31
145	0x0cb51bb7	2.7904146e-31
146	0x8e72f751	-2.9947881e-30
147	0x0db2b48d	1.1013563e-30
148	0x0deb7c62	1.4512937e-30
149	0x8e02c403	-1.6118113e-30
150	0x0be1dc53	8.6998355e-32
151	0x0c92c0b8	2.261085e-31
152	0x8bb3a3c0	-6.9194676e-32
153	0x3bccf2c7	0.0062545273
154	0x3a9aafef	0.00118017
155	0x3a88e8d7	0.0010445368
156	0x3c5f4957	0.013628325
157	0x3bdf34ed	0.006811729
158	0x3b8b8900	0.004258275
159	0x3c0916cb	0.008367251
160	0x3b4ac13c	0.003093793
161	0x3a2c7ac3	0.0006579572
162	0x8bed97b6	-9.151735e-32
163	0x8c31d56d	-1.369981e-31
164	0x0d1fe804	4.9274936e-31
165	0x8c1224d6	-1.1258516e-31
166	0x8c4ec6b2	-1.5929455e-31
167	0x0c84a4a1	2.0436903e-31
168	0x8c57aa08	-1.6614164e-31
169	0x0cc29f40	2.9986278e-31
170	0x8c511d75	-1.6109639e-31
171	0x333c6d2d	4.3871456e-08
172	0x338f547a	6.6743226e-08
173	0xb37edb0b	-5.9338202e-08
174	0x332adfe5	3.978484e-08
175	0xb3023211	-3.031352e-08
176	0x33c5b6f5	9.206807e-08
177	0xb3609fa0	-5.2299242e-08
178	0x32e112d0	2.6202002e-08
179	0x32649fb3	1.3307658e-08
180	0x0000326f	1.8092e-41
181	0x80008e8f	-5.114e-41
182	0x80001058	-5.863e-42
183	0x80001f0e	-1.114e-41
184	0x8000196c	-9.12e-42
185	0x80007883	-4.3231e-41
186	0x000029a0	1.4932e-41
187	0x0000fb33	9.0113e-41
188	0x0000e774	8.303e-41
189	0x3b802383	0.0039104833
190	0xbc04a462	-0.008095833
191	0xbcba11c8	-0.022713557
192	0x3c9c8688	0.019107118
193	0x3c7553b0	0.014973566
194	0x3a249fce	0.0006279916
195	0x3cac0a8a	0.02100112
196	0x3cafd637	0.02146445
197	0x3c5b1fb4	0.013374258
198	0x3cd5dee1	0.026107254
199	0x3adeb222	0.0016990344
200	0x3c402360	0.011727184
201	0x3c7e312c	0.015514653
202	0x3baf894b	0.005356943
203	0x3bc51a33	0.006015086
204	0x3c2280e0	0.0099184215
205	0xbc0423c2	-0.008065166
206	0xbc10e0a9	-0.008842626
207	0x3c2cd0e0	0.010547847
208	0x3c1810b0	0.009281322
209	0xba8cb9a2	-0.0010736475
210	0x3c640601	0.013917447
211	0x3b6fc0fa	0.003658353
212	0xb9259c00	-0.00015793741
213	0xbb55543f	-0.0032551435
214	0x3c0bb152	0.008526163
215	0xbbe7fc79	-0.0070796576
216	0x3c29b8cd	0.010359001
217	0x3bd8aa1f	0.006612077
218	0x3c68845d	0.014191714
219	0x3c5d97c4	0.013524953
220	0xbc1c5d5c	-0.009543743
221	0xb84af52c	-4.8388887e-05
222	0x3cac8efe	0.021064278
223	0xba961c69	-0.0011452559
224	0x3a6488b4	0.000871788
225	0xbce67ed6	-0.028136652
226	0xbc7a3a23	-0.01527265
227	0xbc891e39	-0.016738044
228	0xbc010c4e	-0.007876469
229	0x3b1ba490	0.002374921
230	0x3bfa7ae5	0.0076440447
231	0x3d030bef	0.031993803
232	0x3cdc5b97	0.026899142
233	0x3ce07ad7	0.027402325
234	0xbbbf0aa2	-0.005830125
235	0xbc52f2a6	-0.012875235
236	0x3b98f3ec	0.0046677496
237	0xbb8f2152	-0.0043679858
238	0xbb15a10c	-0.0022831587
239	0x3c24367a	0.010022754
240	0x3a8d9bb1	0.0010803846
241	0x3b893949	0.004187737
242	0x3bf82535	0.007572795
243	0x3b7a395b	0.003818116
244	0x3b9f9026	0.0048694788
245	0x3b1eb26f	0.0024215241
246	0x3bb3c9b6	0.0054866923
247	0x3ad027e4	0.0015881029
248	0xbbbb6be7	-0.00571965
249	0xbbef1240	-0.0072958767
250	0x3c106412	0.008812921
251	0xbc0e86b7	-0.008699111
252	0xbc0f9ff2	-0.008766161
253	0x3bc939fc	0.0061409455
254	0x3bb62b9a	0.005559397
255	0x3bca3ec6	0.006172034

e_conv3.bias f4 [32]
0	0x3d30b594	0.043141916
1	0xba89ae65	-0.0010504244
2	0x97afff25	-1.1373517e-24
3	0x3b6d6a6a	0.0036226758
4	0x3cfdb0ea	0.030968148
5	0xb8f45d3a	-0.000116521915
6	0x3d3535ee	0.044240884
7	0xbb138dad	-0.0022514865
8	0x3ca7d874	0.020488955
9	0x3d5d9479	0.054096673
10	0x3d1191d5	0.035539467
11	0xb719508d	-9.138265e-06
12	0x9ae5bdc3	-9.5018757e-23
13	0x1a98eea7	6.325129e-23
14	0x3cd598b1	0.026073785
15	0x3d039fce	0.032134824
16	0x3cc59f18	0.024123713
17	0x3d2bb546	0.041920923
18	0x3d7d019d	0.061769117
19	0x3cef0838	0.029178724
20	0x3d2340a8	0.039856583
21	0x3ca12489	0.019670742
22	0x3c9d83bf	0.01922786
23	0x3cfd00ce	0.030884173
24	0xa60be770	-4.853897e-16
25	0xba58bcab	-0.000826786
26	0x3d0ba19a	0.034089662
27	0x3c75ce9c	0.015002873
28	0x3c93a518	0.018023059
29	0x3c843fcc	0.016143702
30	0x3d582817	0.052772608
31	0x94300720	-8.8871344e-27

e_conv4.weight f4 [32, 32, 3, 3]
0	0x3c15655f	0.009118407
1	0xbbf55544	-0.007486971
2	0x3b25241c	0.0025198525
3	0x3c2a8fdf	0.010410278
4	0xbb9a2e0c	-0.0047051962
5	0xbc3e2c7c	-0.011607286
6	0x3bc25382	0.005930365
7	0x3a972be8	0.0011533471
8	0xbbdf908a	-0.0068226503
9	0x0000bbef	6.7418e-41
10	0x800053f5	-3.0118e-41
11	0x00005a72	3.2446e-41
12	0x8000bea7	-6.8393e-41
13	0x80000a29	-3.645e-42
14	0x0000ba49	6.6827e-41
15	0x80004eab	-2.8221e-41
16	0x00000970	3.386e-42
17	0x00001e10	1.0784e-41
18	0x950934dd	-2.770863e-26
19	0x94b6dc14	-1.8464109e-26
20	0x948f5a80	-1.4475006e-26
21	0x9427155b	-8.435557e-27
22	0x95354ce7	-3.6613324e-26
23	0x94e0ff56	-2.2718932e-26
24	0x9525b6eb	-3.346578e-26
25	0x94cf4f9c	-2.0933059e-26
26	0x9491199b	-1.4651358e-26
27	0x3bc02043	0.005863221
28	0x3a6f1fe1	0.0009121877
29	0xbc5214a0	-0.0128223
30	0xbb2e90ab	-0.0026636522
31	0xbc58a95f	-0.013223975
32	0xbbe902d4	-0.007110933
33	0xbba9d0d2	-0.005182364
34	0xbbaa5fd1	-0.0051994105
35	0x39bf26ca	0.0003645926
36	0x3cd7f110	0.026360065
37	0x3a096b21	0.00052420987
38	0xbd174381	-0.03692961
39	0x3d01cbb1	0.031688396
40	0x3c2a524d	0.010395599
41	0xbce4a09c	-0.027908616
42	0x3d0467b9	0.03232548
43	0x3c955ce2	0.018232767
44	0xbc68a7ef	-0.014200195
45	0x80009f15	-5.7068e-41
46	0x000036b4	1.9624e-41
47	0x80009adf	-5.5557e-41
48	0x800091ad	-5.2259e-41
49	0x00009caf	5.6207e-41
50	0x80002267	-1.2341e-41
51	0x8000634b	-3.562e-41
52	0x00004e23	2.803e-41
53	0x800047b6	-2.5725e-41
54	0x3b1a5274	0.002354768
55	0x3b07cf29	0.0020722842
56	0xbc29bcd1	-0.010359959
57	0x3b09fb4d	0.0021054328
58	0x3aec7b3e	0.00180421
59	0xbc52412d	-0.012832922
60	0x3c6b0d30	0.014346406
61	0xbbee2e0d	-0.0072686733
62	0xbc8fce5a	-0.01755445
63	0x957b797c	-5.078488e-26
64	0x1737ddf9	5.941066e-25
65	0x17ffae36	1.6522966e-24
66	0x17d9bd10	1.4071022e-24
67	0x97a0f1f5	-1.0400836e-24
68	0x17e27bb6	1.4636137e-24
69	0x17b00cd4	1.1376972e-24
70	0x97b53017	-1.170899e-24
71	0x17ce7366	1.3341569e-24
72	0x3c642235	0.013924171
73	0xbc1b7ffd	-0.009490964
74	0xbc8619d0	-0.01636973
75	0xbb4d84e2	-0.0031359722
76	0xbbf6182e	-0.0075102067
77	0xbb72d751	-0.0037054608
78	0x3c55f7a5	0.013059531
79	0xbc0b0651	-0.008485393
80	0xbbc8ec3e	-0.006131678
81	0x3b34ae13	0.0027569577
82	0x3b91e0a2	0.004451827
83	0xbb615357	-0.003438195
84	0x390ddd4c	0.00013529247
85	0xbb21aca1	-0.0024669545
86	0xbb82a4de	-0.003986939
87	0x3c26a57b	0.01017129
88	0xbb32f70c	-0.0027307896
89	0xbb6558c0	-0.0034995526
90	0x3b89a2f3	0.0042003333
91	0xb9da383e	-0.00041622104
92	0xbb941a9b	-0.004519773
93	0x3c6331ba	0.013866836
94	0xbc4bd486	-0.012440806
95	0xbbd8cb06	-0.006615999
96	0x3b39f87e	0.0028376873
97	0x3c270eee	0.010196431
98	0x3aa6e0ad	0.0012731754
99	0x0000bdb6	6.8055e-41
100	0x800056b4	-3.1103e-41
101	0x00004523	2.4802e-41
102	0x8000b4f3	-6.4912e-41
103	0x800070f8	-4.0526e-41
104	0x8000c5da	-7.0976e-41
105	0x00006a78	3.8194e-41
106	0x0000a11f	5.78e-41
107	0x00001c72	1.0204e-41
108	0x983fcc05	-2.4789175e-24
109	0x18deb552	5.756874e-24
110	0x18df0ae8	5.765516e-24
111	0x1893f7d3	3.8248848e-24
112	0x18c12835	4.992993e-24
113	0x989f8fa5	-4.124558e-24
114	0x191420e6	7.6580645e-24
115	0x99a9cab8	-1.7556068e-23
116	0x19250b89	8.5326296e-24
117	0x188584a2	3.451362e-24
118	0x189a0c5f	3.982056e-24
119	0x1990540f	1.4923202e-23
120	0x18485207	2.5890807e-24
121	0x18128a3d	1.893985e-24
122	0x18643b4d	2.9498249e-24
123	0x18bac4bc	4.8278524e-24
124	0x189de57e	4.0815277e-24
125	0x18fe7e96	6.578528e-24
126	0xb99f1706	-0.00030343997
127	0xbbd5ba35	-0.0065224417
128	0xbb457e68	-0.0030135158
129	0x3bdedd84	0.006801309
130	0xbbfcd70d	-0.0077160657
131	0xbc63f846	-0.0139141735
132	0x3c2aec6f	0.010432347
133	0xbb8d246d	-0.004307321
134	0xbb91610b	-0.0044366173
135	0x3c03ea08	0.008051403
136	0xbb98a610	-0.004658468
137	0x3bc7e1b7	0.0060999054
138	0x3c02c17e	0.007980702
139	0xbc1d6aba	-0.009607965
140	0xbc038950	-0.008028343
141	0x3c25fad1	0.0101306
142	0xbb271034	-0.0025491836
143	0x3b725575	0.0036977206
144	0x3c81ad14	0.0158296
145	0x3c7ffb96	0.015623948
146	0x3ce7dffe	0.02830505
147	0xbaacc26b	-0.00131805
148	0xbb2ca7bb	-0.0026345092
149	0x3c19306a	0.009349922
150	0xbbc61ee0	-0.006046161
151	0xbc424050	-0.011856154
152	0x3bc56a00	0.006024599
153	0x3b84dc5c	0.004054589
154	0x3c43d384	0.011952285
155	0x3c558402	0.013031961
156	0x3c01c9fa	0.00792169
157	0xbb511d16	-0.0031908206
158	0xbc69674a	-0.014245817
159	0x3c827507	0.015924944
160	0xbb156db9	-0.0022800996
161	0xbb9a2f77	-0.0047053653
162	0xbccc6dc6	-0.024954688
163	0xbcc4a891	-0.02400616
164	0xbd369f55	-0.044585545
165	0xbb4f10f9	-0.003159581
166	0x3c2bd3e9	0.010487535
167	0xbca9e0d2	-0.020737085
168	0x3c155052	0.009113388
169	0x3b460fa7	0.0030221732
170	0xbc19381d	-0.009351757
171	0xbc5516b9	-0.013005906
172	0xbc015c53	-0.007895547
173	0xbcf3fadf	-0.02978271
174	0x3b8f9cc4	0.0043827016
175	0x3c007e69	0.0078426385
176	0xbc2762c8	-0.010216422
177	0x3bf77941	0.0075522964
178	0x3c1c00a4	0.009521637
179	0xbbca9c0a	-0.006183152
180	0x3bf6a256	0.007526676
181	0xbc407b85	-0.011748199
182	0xbb0df490	-0.0021660663
183	0x3bfd5540	0.00773111
184	0xbb28978c	-0.0025725095
185	0xbc2c2dc1	-0.010508955
186	0x3c338ae8	0.010958411
187	0xbb0ec363	-0.002178394
188	0xbc599bdc	-0.013281789
189	0x3c033143	0.00800735
190	0x3b0b316d	0.0021239177
191	0xbaedca94	-0.0018142038
192	0x3c391e13	0.011298674
193	0xbbe48448	-0.006973777
194	0xbbc78226	-0.006088513
195	0x3bc240f6	0.005928154
196	0x3aa2f655	0.0012433032
197	0xbb1e1e81	-0.0024127068
198	0x3bbc18b8	0.0057402514
199	0xba286294	-0.00064233807
200	0xbba4a56c	-0.0050246026
201	0x3b7d0773	0.0038609176
202	0xbc093efd	-0.008376834
203	0xbbd51337	-0.0065025347
204	0x3c07d9f2	0.008291708
205	0xbbc35894	-0.005961487
206	0xbaa7e08c	-0.0012808009
207	0x3b67e4a4	0.0035384083
208	0x3bd6057a	0.0065314146
209	0x3c8ce618	0.017199561
210	0xbc49b3d7	-0.012310944
211	0xbb5fa3e7	-0.0034124793
212	0x3c049798	0.008092783
213	0xbc939df8	-0.018019661
214	0xbc5d74ae	-0.013516588
215	0x3b2caa0d	0.0026346475
216	0x0000fc31	9.0469e-41
217	0x80007fa4	-4.5789e-41
218	0x0000d368	7.5838e-41
219	0x000125d1	1.05401e-40
220	0x00005158	2.918e-41
221	0x8000bd85	-6.7987e-41
222	0x00004629	2.5169e-41
223	0x00002d4f	1.6254e-41
224	0x0000bc90	6.7643e-41
225	0x3c90bb89	0.017667549
226	0x3bba2672	0.0056808526
227	0x3c7b375e	0.015333025
228	0xb7c3587b	-2.3287013e-05
229	0xba902854	-0.0010998347
230	0xbb84a833	-0.004048371
231	0x3b104842	0.0022015725
232	0xbc0215e1	-0.007939787
233	0x3a8f8a94	0.0010951334
234	0xbbdfe927	-0.006833214
235	0x3a9b66e2	0.0011856223
236	0xbb33104d	-0.0027322948
237	0x3a752f4e	0.0009353057
238	0x3bf96afb	0.00761163
239	0x3b61c727	0.003445098
240	0xbc087a30	-0.008329913
241	0x3b18b26b	0.0023299705
242	0xbabe67fb	-0.0014526838
243	0x3ba2fbb0	0.004973851
244	0xbbc200fa	-0.0059205266
245	0xbbffb0a2	-0.0078030387
246	0xba29b683	-0.0006474035
247	0xbc0eb208	-0.008709438
248	0xbbd1cc40	-0.0064025223
249	0x3bf39f06	0.0074347286
250	0xbb042e07	-0.0020169036
251	0xbb0e128c	-0.0021678535
252	0x3c3c284f	0.01148422
253	0xbbcaad41	-0.0061852043
254	0x399111a6	0.00027669704
255	0x3b3c32c5	0.0028716784

e_conv4.bias f4 [32]
0	0x3d07318c	0.033006236
1	0xae971e77	-6.8720966e-11
2	0xaaa5bf31	-2.9442554e-13
3	0xbb869e27	-0.0041082087
4	0x3d5d32d9	0.05400357
5	0x3ce75e02	0.028243069
6	0xafe4adaa	-4.1596354e-10
7	0x3d25bdd9	0.040464256
8	0x3c92d006	0.017921459
9	0xa4fb229d	-1.08912535e-16
10	0x3b7fb676	0.0039018667
11	0x3d068707	0.032843616
12	0x862e94c5	-3.283506e-35
13	0xb948727e	-0.00019116138
14	0xbb516dc4	-0.0031956295
15	0xbbae329e	-0.0053160926
16	0x3cd18004	0.025573738
17	0xb9041c00	-0.00012598932
18	0x3ca66dfd	0.020316118
19	0x3cc6c2a8	0.024262741
20	0x9e319f38	-9.403228e-21
21	0x808b7bcd	-1.2809545e-38
22	0xb7e8a501	-2.7733391e-05
23	0x3d030c10	0.031993926
24	0x3d2b5218	0.041826338
25	0xb9fbd556	-0.00048033398
26	0xafa469a9	-2.9906502e-10
27	0x3d4baaa9	0.0497233
28	0x3d14ed53	0.036359143
29	0x90242815	-3.2374175e-29
30	0xbb94b7e3	-0.0045385226
31	0x3c0bc445	0.008530681

e_conv5.weight f4 [32, 64, 3, 3]
0	0xbc25b358	-0.01011356
1	0xbc1371e7	-0.008999324
2	0x3c69535e	0.014241068
3	0x3cc6f6ea	0.02428766
4	0x3a7aafed	0.0009562958
5	0xbc6de69d	-0.0145203145
6	0xbc69f25e	-0.014278976
7	0x3c908232	0.017640207
8	0x3c5a117c	0.013309833
9	0x2dee8580	2.7116753e-11
10	0x2dee4f8d	2.7092795e-11
11	0x2dfb2317	2.855098e-11
12	0x2e2beb4a	3.9089877e-11
13	0x2dbc492e	2.1405624e-11
14	0x2de13d31	2.5606713e-11
15	0x2d4c86f9	1.1626027e-11
16	0x2d7001e0	1.3642837e-11
17	0x2d99f69a	1.75036e-11
18	0x962c11bd	-1.3899647e-25
19	0x960b9c72	-1.1277696e-25
20	0x963e085d	-1.5350717e-25
21	0x967ae295	-2.0266336e-25
22	0x9626b33e	-1.3465932e-25
23	0x9645ff6f	-1.5994134e-25
24	0x9637e246	-1.4854022e-25
25	0x9612710c	-1.1829457e-25
26	0x9648bc63	-1.6215316e-25
27	0x3c8535a1	0.016260924
28	0x3c00a36f	0.007851466
29	0xbc02caf0	-0.007982954
30	0xbbd58db6	-0.0065171374
31	0xbc81448e	-0.01577976
32	0x3c2ff55a	0.010739649
33	0x3ca035b7	0.019556863
34	0xbd3cccca	-0.04609374
35	0x3c8875e1	0.016657772
36	0x3d3681ac	0.04455726
37	0x3c89e816	0.0168343
38	0x3a81d916	0.0009906616
39	0x3c32b3f3	0.010907161
40	0x3c0a1813	0.008428591
41	0xbc8e809b	-0.017395308
42	0x3cc6b5a7	0.02425654
43	0xbc262b79	-0.010142201
44	0xbc7a5287	-0.015278465
45	0x2d8ad8d5	1.5785076e-11
46	0xad60ddd1	-1.2782179e-11
47	0xada8778f	-1.9152483e-11
48	0x2cab390d	4.8664462e-12
49	0xac1dd0c3	-2.2426928e-12
50	0xadfe20c7	-2.8891013e-11
51	0x2f2c9507	1.5696254e-10
52	0x2e432199	4.4367707e-11
53	0x2cf012e9	6.8233097e-12
54	0x3c0764cb	0.008263777
55	0x3b858f87	0.0040759477
56	0x3befd32a	0.007318874
57	0x3d06359a	0.032765962
58	0xbc8fe730	-0.017566293
59	0xbcb94141	-0.022614123
60	0x3cd9f9af	0.026608316
61	0x3bcfbd69	0.006339718
62	0xbbd66260	-0.006542489
63	0xb3892b63	-6.3874516e-08
64	0xb3959f14	-6.967289e-08
65	0xb39e4313	-7.369649e-08
66	0xb39ad6cb	-7.2102544e-08
67	0xb3ce1922	-9.597194e-08
68	0xb3b00a06	-8.197462e-08
69	0xb3b52bf6	-8.436466e-08
70	0xb3babc1e	-8.695518e-08
71	0xb3f8d0b6	-1.1586364e-07
72	0x3cc0e3ee	0.023546185
73	0xbcb8e4d8	-0.022570059
74	0xbaf4a553	-0.0018664993
75	0xbbafe359	-0.005367678
76	0x3c7e60a7	0.015525973
77	0x3d0d148d	0.034443427
78	0x39a9c9ef	0.00032384644
79	0xbcb52b8d	-0.022115493
80	0x3cd3b412	0.0258427
81	0x3ce6fc63	0.02819652
82	0xbb2b1c0d	-0.002610925
83	0x3ca458d7	0.020061893
84	0x3cddee73	0.02709124
85	0xbc356853	-0.011072236
86	0xbcb8ae10	-0.022543937
87	0x3b84089f	0.004029348
88	0xbb7fb595	-0.0039018143
89	0x3c0ef387	0.008725054
90	0x3bdef5dd	0.0068042115
91	0x3c81feac	0.015868507
92	0xbb0ebb73	-0.002177921
93	0x3cadd239	0.021218406
94	0x3cdfeeed	0.027335608
95	0xbcdf73f5	-0.027276972
96	0x3cb36f21	0.021903576
97	0x3cb8da28	0.022564963
98	0x3b3f30af	0.0029173305
99	0x9d18863e	-2.0186434e-21
100	0x9d0932aa	-1.8157992e-21
101	0x9cba227c	-1.2317362e-21
102	0x9d371d29	-2.4234924e-21
103	0x9d7b8174	-3.32865e-21
104	0x9d23f318	-2.1698547e-21
105	0x9d0ebd1d	-1.8891313e-21
106	0x9cc47b1f	-1.3002018e-21
107	0x9c70dda9	-7.969583e-22
108	0x19aa4075	1.7603622e-23
109	0x9ae87640	-9.6143994e-23
110	0x1a32c917	3.6971976e-23
111	0x1a269f16	3.4456504e-23
112	0x98bff832	-4.9622956e-24
113	0x1a38fb44	3.825328e-23
114	0x1a61c7eb	4.6690402e-23
115	0x1a35ff49	3.763614e-23
116	0x199c2df7	1.6148587e-23
117	0x996bc99e	-1.21899315e-23
118	0x97ce34e7	-1.3325792e-24
119	0x988796c7	-3.504893e-24
120	0x998968cc	-1.4207795e-23
121	0x979c50d8	-1.0101672e-24
122	0x99126da5	-7.570166e-24
123	0x999dd2d0	-1.6318566e-23
124	0x99073918	-6.9908664e-24
125	0x9838193f	-2.3794189e-24
126	0x3c6fd232	0.014637517
127	0x3ca5270b	0.020160219
128	0xbafd1913	-0.0019309841
129	0xbb4cc2ec	-0.0031244112
130	0x3bc2d9e4	0.0059463847
131	0x3bb3b52d	0.0054842443
132	0x3c62a9ed	0.013834459
133	0x3c83ad47	0.016073836
134	0x3cbce5a2	0.023058716
135	0xbc0697fc	-0.008214947
136	0x3b84551e	0.004038467
137	0xbbaed7e8	-0.0053357966
138	0x3b9d8a56	0.0048077507
139	0x3c8cb69b	0.017176917
140	0x3cb23330	0.021752924
141	0x3cbccabb	0.023045888
142	0x3a3f9dc2	0.00073095795
143	0x3c87e292	0.01658753
144	0x3c746523	0.014916691
145	0x3b7f91c9	0.0038996807
146	0x3c833d7a	0.016020525
147	0x3c5b32d5	0.0133788185
148	0x3bb12313	0.0054057925
149	0x3c35a6f2	0.011087166
150	0xbbaba7bb	-0.005238501
151	0xbc80cc8e	-0.01572254
152	0x3c4cf427	0.012509382
153	0x3c38c338	0.0112770125
154	0x3cd3067e	0.025759932
155	0x3b14077a	0.0022587464
156	0xbad83ffb	-0.001649856
157	0x3c1e7e15	0.009673615
158	0x3cf61a56	0.030041855
159	0xbc7b7d15	-0.015349646
160	0x3bafb0e3	0.0053616627
161	0x3cb76d68	0.022391036
162	0xbb92ac96	-0.0044761403
163	0xbc52b5ef	-0.012860759
164	0xbb872d99	-0.0041253087
165	0x3cd7d5e7	0.026347114
166	0x3bad7548	0.005293522
167	0xbc1206be	-0.00891274
168	0x3a6f3496	0.00091249624
169	0xbb903806	-0.0044012098
170	0xbc2b30b5	-0.010448624
171	0xbc02a5a7	-0.007974065
172	0xbc0c5a8a	-0.008566508
173	0xbb6fd915	-0.0036597897
174	0x3beccf3b	0.0072268522
175	0x3b107eeb	0.0022048305
176	0x3b76b359	0.003764352
177	0x3b9c658d	0.004772848
178	0xbb4f05cd	-0.003158915
179	0xba94db52	-0.0011356866
180	0x3c8ac373	0.0169389
181	0xbac58a70	-0.0015071165
182	0x3c56185b	0.01306733
183	0xbbde1b5b	-0.0067781634
184	0xbbd6daca	-0.0065568434
185	0x3b9a04b3	0.004700267
186	0x3c6fc650	0.014634684
187	0x3c805031	0.015663238
188	0x3b8f2274	0.004368121
189	0x3ce11204	0.02747441
190	0xbc28284a	-0.010263512
191	0x3c8a0744	0.016849168
192	0x3d21864f	0.039434727
193	0xbd09c03d	-0.0336306
194	0xbc94c991	-0.01816252
195	0xbb6315bb	-0.0034650404
196	0xbb4ca71c	-0.0031227535
197	0x3c5433c5	0.012951796
198	0x3695994c	4.458392e-06
199	0xbb3c6520	-0.0028746799
200	0xbb323b45	-0.0027195972
201	0xbb3c0c0a	-0.00286937
202	0x3c83afa5	0.016074965
203	0x3c2593eb	0.010106067
204	0xbc37c62e	-0.011216683
205	0xbbe5ba5c	-0.007010741
206	0x3cb2397d	0.021755928
207	0xbca3b09a	-0.019981671
208	0xbc21e876	-0.009882083
209	0xb9fa7baa	-0.00047775853
210	0x3c050b2e	0.008120341
211	0x3b190ef3	0.0023354858
212	0x3b8dac2f	0.0043235044
213	0xbbcd16ba	-0.0062588127
214	0xb9770811	-0.0002355876
215	0x3bc70f9e	0.0060748598
216	0x000080cb	4.6202e-41
217	0x8000c1a6	-6.9468e-41
218	0x800022fa	-1.2547e-41
219	0x8000c528	-7.0726e-41
220	0x80005b60	-3.2779e-41
221	0x0000ec6a	8.481e-41
222	0x8000ede6	-8.5342e-41
223	0x000033a9	1.8532e-41
224	0x8000307a	-1.739e-41
225	0x3c4bf5d9	0.012448751
226	0x3c8ca382	0.01716781
227	0x3b7cb407	0.0038559453
228	0x3bb8c023	0.005638139
229	0x3c015b40	0.007895291
230	0x3c0dbb49	0.008650609
231	0x3c978325	0.018495152
232	0xbc9a8537	-0.01886235
233	0xbbe9a8ef	-0.007130734
234	0xbc4e3c31	-0.012587593
235	0xbc9f2ed1	-0.019431503
236	0x3a31b698	0.0006779223
237	0xbcc8afaf	-0.024497835
238	0x3afbb5c6	0.0019203953
239	0xbca0c10f	-0.019623308
240	0xbc12c265	-0.00895748
241	0xbb91d993	-0.0044509857
242	0x3ac5c944	0.0015089889
243	0x3ca25490	0.019815713
244	0xb9bfa0e3	-0.0003655023
245	0xbbaa8a4a	-0.0052044736
246	0x3b9c2a47	0.004765782
247	0x3c32a150	0.010902718
248	0x3c784055	0.015152057
249	0xbaa68834	-0.0012705387
250	0x3bd600c6	0.006530854
251	0xba0ec272	-0.0005445845
252	0x3ca66fa1	0.0203169
253	0xbcdff864	-0.027340122
254	0xbc4e7bf6	-0.012602797
255	0x3c8ceb36	0.017202001

e_conv5.bias f4 [32]
0	0x3c89a7db	0.016803673
1	0x3cfe0d36	0.031012159
2	0xb38ebd7d	-6.646858e-08
3	0xb7b51967	-2.158871e-05
4	0xacd31de1	-6.000298e-12
5	0x9e26f17d	-8.8379054e-21
6	0x3d0e89cd	0.034799386
7	0x3d1b3f15	0.037901957
8	0x3b2a553c	0.0025990745
9	0x3cd36374	0.025804259
10	0x3d25e2b3	0.0404994
11	0x3b98da9b	0.0046647317
12	0x3cba0ed4	0.022712149
13	0xb9a483be	-0.00031378673
14	0x3d34e9c8	0.044168264
15	0x3d16ca71	0.036814157
16	0x3d031cb9	0.032009814
17	0xbb5720b4	-0.003282589
18	0xb7cf14c1	-2.4685987e-05
19	0x3c8af7d5	0.016963879
20	0x3c09f3f5	0.00841998
21	0x3d3a7983	0.04552604
22	0xaea4b029	-7.489149e-11
23	0x3d210de0	0.039319873
24	0xba620c0e	-0.0008623012
25	0xafe56e83	-4.173338e-10
26	0xbb4308d1	-0.0029759894
27	0x3ca09628	0.01960285
28	0xb531bf6a	-6.621618e-07
29	0x3a3a3fd9	0.0007104851
30	0x3d2c8667	0.042120364
31	0x3d2d680d	0.04233556

e_conv6.weight f4 [32, 64, 3, 3]
0	0xb9afb02d	-0.00033509862
1	0xb9cc4bb9	-0.0003896633
2	0xb9f411df	-0.00046552622
3	0xb9907c91	-0.0002755863
4	0xb9cf6557	-0.0003955762
5	0xb9e52dbd	-0.0004371236
6	0xb99a7dd5	-0.0002946692
7	0xb997e0e3	-0.00028968518
8	0xb9b344cc	-0.00034192798
9	0xb9b40991	-0.00034339403
10	0xba68d6c5	-0.0008882101
11	0xbaa17245	-0.001231738
12	0xb983c313	-0.0002513161
13	0xba4050fd	-0.0007336287
14	0xba9ddacd	-0.0012043357
15	0xb8ce64a6	-9.841593e-05
16	0xb9cbb16f	-0.00038851376
17	0xba818fe9	-0.0009884808
18	0x3a228824	0.0006200096
19	0x3a009029	0.0004904294
20	0x39fc4714	0.00048118143
21	0x3a3a51af	0.0007107509
22	0x39fe598a	0.00048513367
23	0x3a003d73	0.0004891969
24	0x3a199fa7	0.0005860277
25	0x3999d6be	0.0002934243
26	0x3a2a8e05	0.0006506148
27	0xb9992529	-0.0002921012
28	0xba386de3	-0.00070354174
29	0xba8e8710	-0.0010873992
30	0xb8be1800	-9.064376e-05
31	0xba35f5da	-0.0006941237
32	0xba68425c	-0.0008859986
33	0x38ebc55e	0.00011242436
34	0xb9e639ac	-0.00043911987
35	0xba337a9d	-0.0006846579
36	0x800084f1	-4.769e-41
37	0x800064fb	-3.6225e-41
38	0x8000fc9f	-9.0623e-41
39	0x00002594	1.348e-41
40	0x8000c77a	-7.1559e-41
41	0x000030e6	1.7541e-41
42	0x0000910b	5.2032e-41
43	0x0001ec48	1.76597e-40
44	0x8000f5dd	-8.8199e-41
45	0x91218b9e	-1.2743683e-28
46	0x9110a68b	-1.1410917e-28
47	0x8ff1d626	-2.3846922e-29
48	0x111531fd	1.1769431e-28
49	0x912d972d	-1.3693878e-28
50	0x11265df0	1.3124038e-28
51	0x0fc966b6	1.9859693e-29
52	0x10e6da9e	9.105584e-29
53	0x8f36d8b2	-9.015027e-30
54	0xba11c675	-0.00055608834
55	0xba5fa3d3	-0.00085311866
56	0xbab2c912	-0.0013640246
57	0xba08dbd6	-0.00052207464
58	0xba5e8dca	-0.0008489756
59	0xbab004db	-0.0013429181
60	0xb9e28a33	-0.00043209046
61	0xba24b0d2	-0.0006282452
62	0xbaa274f5	-0.0012394475
63	0xb99aa393	-0.0002949504
64	0xba1189b1	-0.00055518287
65	0xba4c5c6f	-0.0007795756
66	0xb9cacc88	-0.0003868083
67	0xba1a344e	-0.0005882428
68	0xba71c552	-0.00092228234
69	0xb93f7f96	-0.00018262709
70	0xba08f680	-0.00052247196
71	0xba584a93	-0.00082508585
72	0xb8f015e0	-0.00011448166
73	0xb92883ad	-0.00016070782
74	0xb9d46d59	-0.0004051726
75	0xb8b753a8	-8.741702e-05
76	0xb93498ed	-0.00017223107
77	0xb9f25364	-0.00046219968
78	0xb81796ea	-3.6141755e-05
79	0xb8fe045d	-0.000121124765
80	0xb9da74c6	-0.00041667203
81	0xba0d942e	-0.00054008036
82	0xba5ac19f	-0.0008344892
83	0xba795006	-0.00095105206
84	0xba2c2e29	-0.00065681577
85	0xba53b045	-0.00080752774
86	0xba80680e	-0.0009796636
87	0xb9f7e1e0	-0.000472798
88	0xba2bd296	-0.0006554512
89	0xba703530	-0.0009163199
90	0xb9717c20	-0.00023029791
91	0xba549ca2	-0.00081104983
92	0xbaa0a248	-0.0012255395
93	0xb80cb272	-3.354479e-05
94	0xba34aa04	-0.00068917894
95	0xba89b470	-0.0010506045
96	0x38701847	5.724307e-05
97	0xb9e7ccfb	-0.00044212476
98	0xba70cbe8	-0.0009185658
99	0xb99604ea	-0.0002861389
100	0xb9c843c2	-0.00038197456
101	0xb9cf0ba7	-0.00039490798
102	0xb99bedd6	-0.00029741105
103	0xb9a81c1e	-0.00032064406
104	0xb9dfb742	-0.00042670412
105	0xb97ddcfb	-0.00024210282
106	0xb990c08e	-0.00027609285
107	0xb9b68ae7	-0.00034817235
108	0x39f7ae9e	0.0004724161
109	0x39c8c607	0.00038294515
110	0x398d0003	0.00026893624
111	0x39988f70	0.00029098568
112	0x39e8c1dc	0.00044394925
113	0x3a04cbf6	0.0005065793
114	0x3920fba4	0.00015352533
115	0x396546b4	0.00021865481
116	0x39b0c29b	0.00033714328
117	0xb91e628b	-0.00015104764
118	0xb9d09784	-0.0003978574
119	0xba8a7f91	-0.0010566582
120	0x3667a07e	3.45151e-06
121	0xba05dea3	-0.0005106723
122	0xba92a8d5	-0.0011189232
123	0x377e8c49	1.51722425e-05
124	0xb9fbf8f0	-0.00048059924
125	0xba9f971d	-0.0012175773
126	0xb9c65b38	-0.00037833466
127	0xba30021b	-0.0006714181
128	0xbaa7f380	-0.0012813658
129	0xb94611a4	-0.00018889323
130	0xb9f57790	-0.00046819123
131	0xba9a6afc	-0.0011781151
132	0xb7252730	-9.84389e-06
133	0xb9aa4f21	-0.00032483882
134	0xba8591f5	-0.0010190593
135	0x3546d0c6	7.4064553e-07
136	0xb928aeb2	-0.00016086808
137	0xba35255a	-0.0006910168
138	0x38089ccb	3.257095e-05
139	0xb84036ea	-4.582751e-05
140	0xba0f45c6	-0.0005465414
141	0x36af8257	5.23058e-06
142	0xb74ae489	-1.2093348e-05
143	0xb9f66e22	-0.00047002832
144	0x00002e37	1.6579e-41
145	0x00006531	3.63e-41
146	0x80008ffc	-5.1652e-41
147	0x800037df	-2.0043e-41
148	0x8000564a	-3.0955e-41
149	0x80001bc8	-9.966e-42
150	0x000014ce	7.463e-42
151	0x8000499f	-2.641e-41
152	0x80004355	-2.4154e-41
153	0xb93c3466	-0.00017948597
154	0xb98fd66a	-0.00027434836
155	0xb9375a88	-0.00017485966
156	0xb90e861b	-0.00013592133
157	0xb9169452	-0.00014360368
158	0xb9454992	-0.00018814791
159	0xb901c4e1	-0.00012375742
160	0xb8e92437	-0.00011117051
161	0xb931bca5	-0.00016950311
162	0x0000e7ce	8.3156e-41
163	0x0001b612	1.5715e-40
164	0x0000ef47	8.5837e-41
165	0x800096a0	-5.4034e-41
166	0x00006702	3.6952e-41
167	0x000047d1	2.5763e-41
168	0x800062cc	-3.5442e-41
169	0x00002c97	1.5996e-41
170	0x8000d4ba	-7.6312e-41
171	0x0001aad6	1.5312e-40
172	0x0001132b	9.8712e-41
173	0x800040fb	-2.331e-41
174	0x0000c12d	6.9298e-41
175	0x800083a5	-4.7225e-41
176	0x00006ec1	3.9731e-41
177	0x8001882c	-1.40685e-40
178	0x000146bb	1.17209e-40
179	0x000029a7	1.4942e-41
180	0x800081d0	-4.6568e-41
181	0x80003015	-1.7249e-41
182	0x8000c93b	-7.2188e-41
183	0x8000c2c8	-6.9874e-41
184	0x8000b0ed	-6.3469e-41
185	0x8000a4fb	-5.9184e-41
186	0x00010151	9.2308e-41
187	0x00008b81	5.0045e-41
188	0x00007bb6	4.4379e-41
189	0x373ccbde	1.125314e-05
190	0x38fa071a	0.00011922252
191	0x3930ea3d	0.00016871929
192	0x37cbca82	2.4293786e-05
193	0xb7052393	-7.9357005e-06
194	0x38b25058	8.5026666e-05
195	0xb8f35035	-0.00011602083
196	0xb8aebd76	-8.3322564e-05
197	0x38a60ea0	7.918221e-05
198	0xb9dd1d4a	-0.00042174227
199	0xba30ee61	-0.00067493884
200	0xba9d3fec	-0.00119972
201	0xb9cbb915	-0.00038857074
202	0xba33b852	-0.0006855774
203	0xba9384d2	-0.0011254793
204	0xb958e31d	-0.00020683972
205	0xba0300b7	-0.000499736
206	0xba8404ba	-0.0010072209
207	0xba7d2841	-0.00096571824
208	0xba85d28c	-0.0010209843
209	0xbab1b69e	-0.0013558452
210	0xba70a55b	-0.00091799133
211	0xba8e18d9	-0.0010841145
212	0xbab2502d	-0.0013604217
213	0xba8d49e3	-0.0010779466
214	0xba8883a2	-0.0010415206
215	0xbaa39229	-0.0012479472
216	0xb9d73bed	-0.00041052644
217	0xba4aebab	-0.0007740806
218	0xba979386	-0.0011564351
219	0xb95ba9db	-0.00020948744
220	0xba470d34	-0.0007593215
221	0xba9f1452	-0.0012136793
222	0x38247270	3.9207225e-05
223	0xb9d02584	-0.00039700803
224	0xba63d811	-0.0008691559
225	0x3916578e	0.00014337731
226	0xb926613c	-0.00015867216
227	0xba197dde	-0.00058552425
228	0xb90a51ee	-0.00013191227
229	0xb9a99da6	-0.0003235165
230	0xba50bcd5	-0.00079627085
231	0xb9c8e02b	-0.0003831399
232	0xba4c4b5a	-0.00077932107
233	0xbaab49b7	-0.0013068233
234	0xb92c7b2b	-0.00016449082
235	0xb9db94ff	-0.00041881946
236	0xbaa3cb23	-0.0012496453
237	0xb8e4364c	-0.00010882001
238	0xb9de8c33	-0.00042447596
239	0xba9ad8bf	-0.0011813863
240	0x37dc7442	2.628018e-05
241	0xb9601488	-0.00021369953
242	0xba960985	-0.0011446929
243	0xb9d982be	-0.00041486876
244	0xba17a977	-0.0005785445
245	0xba73ac9f	-0.0009295437
246	0xb9cea15b	-0.000394116
247	0xba0c9933	-0.00053634046
248	0xba50654c	-0.0007949665
249	0xb948928b	-0.00019128078
250	0xb9e411c6	-0.0004350079
251	0xba2b60fc	-0.0006537584
252	0xb9e83efe	-0.0004429742
253	0xba05a48e	-0.0005098068
254	0xb9e2ec49	-0.00043282125
255	0xba1c866a	-0.0005970957

e_conv6.bias f4 [32]
0	0xb96617d4	-0.00021943386
1	0x99a50ed7	-1.7066594e-23
2	0xa6465cb5	-6.882069e-16
3	0xba6e8e22	-0.0009100159
4	0x30662e3a	8.3739204e-10
5	0x3cf3f445	0.029779563
6	0x3cb77491	0.02239445
7	0xbaef687d	-0.0018265393
8	0x3c5396c1	0.0129143605
9	0x3bdfe159	0.0068322835
10	0x3d01ea4d	0.031717587
11	0x3cb32b89	0.021871345
12	0x3bc0d4a4	0.0058847237
13	0x3c0b5473	0.008504021
14	0x3bcae325	0.0061916285
15	0x3cd5d9db	0.026104858
16	0x3d3a599c	0.045495614
17	0xb539bbe3	-6.919128e-07
18	0x3c1361a0	0.008995444
19	0x3cd32c4c	0.025777958
20	0xbaf346ef	-0.0018560569
21	0x3ce698de	0.028149065
22	0x3c0486e2	0.008088799
23	0xbb9f2da0	-0.004857734
24	0x3d472faa	0.04862944
25	0x3c583cc2	0.01319808
26	0xbbede21a	-0.0072596194
27	0x3d2b1f31	0.041777793
28	0x9d58b516	-2.8680981e-21
29	0x3d36f696	0.044668756
30	0xaf62046a	-2.0556148e-10
31	0x3d411462	0.04713858
